…
                        'warmup': 0,
                        'weight_decay': 0.04},
    'tasks_per_node': 1}
[INFO    ][2026-02-02 22:29:39][process_main             ] Running... (rank: 0/1)
[INFO    ][2026-02-02 22:29:39][main                     ] Running pre-training of app: vjepa
[INFO    ][2026-02-02 22:29:42][main                     ] which_dtype='bfloat16'
[INFO    ][2026-02-02 22:29:42][main                     ] Initialized (rank/world-size) 0/1
[INFO    ][2026-02-02 22:29:49][init_video_model         ] MultiMaskWrapper(
  (backbone): VisionTransformer(
    (patch_embed): PatchEmbed(
      (proj): Conv2d(3, 1024, kernel_size=(16, 16), stride=(16, 16))
    )
    (blocks): ModuleList(
      (0-23): 24 x Block(
        (norm1): LayerNorm((1024,), eps=1e-06, elementwise_affine=True)
        (attn): Attention(
          (qkv): Linear(in_features=1024, out_features=3072, bias=True)
          (attn_drop): Dropout(p=0.0, inplace=False)
          (proj): Linear(in_features=1024, out_features=1024, bias=True)
          (proj_drop): Dropout(p=0.0, inplace=False)
        )
        (norm2): LayerNorm((1024,), eps=1e-06, elementwise_affine=True)
        (mlp): MLP(
          (fc1): Linear(in_features=1024, out_features=4096, bias=True)
          (act): GELU(approximate='none')
          (fc2): Linear(in_features=4096, out_features=1024, bias=True)
          (drop): Dropout(p=0.0, inplace=False)
        )
      )
    )
    (norm): LayerNorm((1024,), eps=1e-06, elementwise_affine=True)
  )
)
[INFO    ][2026-02-02 22:29:49][init_video_model         ] PredictorMultiMaskWrapper(
  (backbone): VisionTransformerPredictor(
    (predictor_embed): Linear(in_features=1024, out_features=384, bias=True)
    (mask_tokens): ParameterList(
        (0): Parameter containing: [torch.float32 of size 1x1x384 (cuda:0)]
        (1): Parameter containing: [torch.float32 of size 1x1x384 (cuda:0)]
    )
    (predictor_blocks): ModuleList(
      (0-11): 12 x Block(
        (norm1): LayerNorm((384,), eps=1e-06, elementwise_affine=True)
        (attn): Attention(
          (qkv): Linear(in_features=384, out_features=1152, bias=True)
          (attn_drop): Dropout(p=0.0, inplace=False)
          (proj): Linear(in_features=384, out_features=384, bias=True)
          (proj_drop): Dropout(p=0.0, inplace=False)
        )
        (norm2): LayerNorm((384,), eps=1e-06, elementwise_affine=True)
        (mlp): MLP(
          (fc1): Linear(in_features=384, out_features=1536, bias=True)
          (act): GELU(approximate='none')
          (fc2): Linear(in_features=1536, out_features=384, bias=True)
          (drop): Dropout(p=0.0, inplace=False)
        )
      )
    )
    (predictor_norm): LayerNorm((384,), eps=1e-06, elementwise_affine=True)
    (predictor_proj): Linear(in_features=384, out_features=1024, bias=True)
  )
)
[INFO    ][2026-02-02 22:29:49][init_video_model         ] Encoder number of parameters: 303098880
[INFO    ][2026-02-02 22:29:49][init_video_model         ] Predictor number of parameters: 22082944
[INFO    ][2026-02-02 22:29:49][main                     ] Initializing basic multi-block mask

============================= JOB FEEDBACK =============================
…
